tflite_learn_3.tflite (tflite, 41676 bytes, 6 tensors)

sequential/conv2d/BiasAdd/ReadVariableOp f4 [16]
0	0xbef0fb91	-0.4706693
1	0xbed3dc57	-0.41379043
2	0xbe6c7e04	-0.23094946
3	0xbf016623	-0.50546473
4	0xbe6e1f02	-0.23254016
5	0xbe51f12a	-0.20502153
6	0xbedf66a6	-0.43633002
7	0xbe64a9b8	-0.22330368
8	0xbdc8aeb3	-0.09798946
9	0xbf0cf97c	-0.5506818
10	0xbe95abb3	-0.2923256
11	0xbf3c7551	-0.7361651
12	0xbf088e8c	-0.5334251
13	0x3c32a36e	0.0109032225
14	0xbf427902	-0.75965893
15	0xbea70414	-0.326203

sequential/conv2d_1/BiasAdd/ReadVariableOp f4 [32]
0	0xbeed2aed	-0.46321812
1	0xbe65ef44	-0.22454554
2	0xbeb5b6ae	-0.35490936
3	0xbe01ef86	-0.12689027
4	0x3abd80cd	0.0014457941
5	0xbf047506	-0.51741064
6	0xbdb651fd	-0.08902357
7	0xbe1a940a	-0.15095535
8	0xbe3de743	-0.1854525
9	0xbece145f	-0.40249917
10	0xbcc2bba8	-0.023771122
11	0xbf3aee57	-0.7301993
12	0xbe104d90	-0.14092088
13	0xbd8624cf	-0.065499894
14	0xbf10f32f	-0.5662107
15	0xbe6af703	-0.2294579
16	0x3e38c2d2	0.18043068
17	0xbf028bdc	-0.5099466
18	0x3e52c125	0.20581491
19	0xbe62b214	-0.22138244
20	0xbe8871c3	-0.26649293
21	0xbeb07f8e	-0.34472317
22	0x3dc60dc8	0.09670597
23	0xbdba8633	-0.09107628
24	0xbc8dddef	-0.01731774
25	0xbeb2abd3	-0.34896716
26	0xbe48fdd6	-0.1962808
27	0xbf03e48d	-0.51520616
28	0xbec7872d	-0.38970318
29	0xbe8241d2	-0.25440842
30	0xbe537b6c	-0.2065255
31	0xbeb6a29b	-0.35670933

sequential/conv2d/Conv2D f4 [16, 3, 3, 1]
0	0xbd083061	-0.033249263
1	0xbe0934aa	-0.13398996
2	0x3be8d4e2	0.0071054557
3	0x3d8d49d9	0.06898851
4	0xbe290210	-0.16504693
5	0x3da617b9	0.081099935
6	0x3df9e857	0.122025184
7	0xbe2dd5db	-0.1697611
8	0x3e176773	0.14785556
9	0xbdf785bb	-0.12086054
10	0x3e18c2d8	0.14918077
11	0xbdda3d7a	-0.10656257
12	0xbe072cc1	-0.13200666
13	0x3e20685d	0.15664811
14	0xbdd7b5d5	-0.105327286
15	0xbdeec7b8	-0.11659187
16	0x3d91df0e	0.071226224
17	0xbd9bfd8b	-0.07616719
18	0x3e100028	0.1406256
19	0xbe316854	-0.17324954
20	0xbdd79d9a	-0.10528107
21	0xbc178581	-0.009248138
22	0xbd880332	-0.066412345
23	0xbd52300c	-0.051315352
24	0x3cc6a789	0.024249809
25	0xbd9273d6	-0.07151
26	0xbd77b2c8	-0.060473233
27	0x3c9ac8e2	0.018894617
28	0x3dd11dec	0.10210785
29	0x3de22f10	0.11044133
30	0xbc1fa4a2	-0.009743841
31	0x3e4a94e2	0.19783357
32	0x3dc50f5d	0.09622071
33	0x3d209660	0.03920591
34	0x3dc5e805	0.09663395
35	0x3dc6518f	0.09683525
36	0x3dbb1226	0.09134321
37	0x3c813f63	0.015777295
38	0xbdb9b7a2	-0.09068228
39	0x3ddb781e	0.1071627
40	0x3b41acd9	0.0029552488
41	0xbdfd642c	-0.12372622
42	0x3e19ed2c	0.1503188
43	0x3da5f5af	0.08103501
44	0xbdf7476a	-0.12074168
45	0xbda90327	-0.082525544
46	0xbe28dfc2	-0.16491607
47	0x3e12626a	0.14295354
48	0xba9bcca5	-0.001188655
49	0x3c7e3d0a	0.0155174825
50	0xbdf9b13e	-0.121920094
51	0xbbc32e2e	-0.005956433
52	0x3b8b23ff	0.0042462344
53	0xbdf95723	-0.12174823
54	0xbe035072	-0.12823656
55	0xbdcb1f6b	-0.09918102
56	0xbde04ca3	-0.10952117
57	0xbdeeea64	-0.116658
58	0xbde9837e	-0.11402033
59	0xbdbf0e1b	-0.09328862
60	0xbd9b206c	-0.07574543
61	0xbdcc3fb9	-0.09973092
62	0xbd6a6d40	-0.057233095
63	0x3e2c95b4	0.16853982
64	0x3e363d97	0.17796932
65	0x3de68772	0.11256303
66	0xbd9b3f1d	-0.07580397
67	0xbc474d68	-0.012164451
68	0xbd3ce375	-0.046115357
69	0xbbc8b889	-0.006125514
70	0x3d6d6828	0.05796066
71	0xbc988400	-0.01861763
72	0x3d375181	0.044755463
73	0x3cb816d2	0.02247182
74	0xbe04abd8	-0.12956178
75	0xbce92f75	-0.028465012
76	0x3cf13cc9	0.02944793
77	0xbcf59c0a	-0.029981632
78	0xbdd651df	-0.104648344
79	0xbe04bc0e	-0.12962362
80	0xbdbb22f4	-0.09137526
81	0xbe304322	-0.17213109
82	0x3c86c78d	0.016452575
83	0x3d7a0a7a	0.061045147
84	0x3e85f2d0	0.26161814
85	0xbd262f5f	-0.04057252
86	0xbe8584ec	-0.26077974
87	0xbe16a33d	-0.14710708
88	0x3d6792da	0.056536533
89	0x3dccffee	0.10009752
90	0x3e39868b	0.1811773
91	0x3cdaf28d	0.026726985
92	0xbe48c32e	-0.19605705
93	0x3daae257	0.08343952
94	0x3d4d36e4	0.050101176
95	0xbce3dac0	-0.027814269
96	0xbcc43cbc	-0.023954742
97	0x3d52eeca	0.05149726
98	0xbd41d43e	-0.04732155
99	0xbe0341b2	-0.1281803
100	0xbd3f8607	-0.046758678
101	0xbdf84242	-0.12122013
102	0xbdf7cac0	-0.12099218
103	0xbd60cb1b	-0.054881196
104	0xbda2ad3e	-0.079431996
105	0x3e90a710	0.2825246
106	0xbc565002	-0.013080599
107	0x3e3f2458	0.18666208
108	0xbe95229f	-0.29127976
109	0x3d79051e	0.060795896
110	0xbe52b563	-0.20577006
111	0x3dc662a6	0.096867844
112	0x3d6c96f2	0.05776114
113	0x3dba5ec7	0.091001086
114	0x3e08a46e	0.13343975
115	0xbd04b266	-0.032396697
116	0x3d25036b	0.040286463
117	0x3ddc22b4	0.107488066
118	0x3de1f24a	0.11032541
119	0x3d3bd8bc	0.04586099
120	0x3ce35b87	0.027753605
121	0x3d8972fc	0.06711385
122	0x3d18a9f2	0.037271447
123	0xbd2f4cbb	-0.042797785
124	0x398f9b9a	0.00027391018
125	0xbcdb65c4	-0.026781924
126	0xbdb1e0d9	-0.086854644
127	0xbdbe44fd	-0.09290502
128	0x3dbfc09d	0.0936291
129	0xbe4fa79c	-0.20278782
130	0xbe32021d	-0.17383619
131	0x3e39af0e	0.18133184
132	0xbdd6727b	-0.10471054
133	0xbd77fa22	-0.06054128
134	0x3e04b6e5	0.12960394
135	0x3e4a6b7d	0.19767566
136	0xbe0980a9	-0.13427986
137	0xbc77aa99	-0.015116357
138	0x3dd17d82	0.10229017
139	0xbd877301	-0.06613732
140	0xbc09e502	-0.008416416
141	0xbe76d74f	-0.24105571
142	0x3e17ec89	0.14836325
143	0x3da500e4	0.080568105

sequential/conv2d_1/Conv2D f4 [32, 3, 3, 16]
0	0x3e7f7873	0.24948291
1	0x3c11f313	0.008908051
2	0xbe5e3dc2	-0.21703246
3	0x3d29eaf1	0.041483823
4	0xbd33f10c	-0.043931052
5	0xbe9a2410	-0.30105639
6	0xbdb9f691	-0.09080232
7	0x3df5730d	0.11984835
8	0xbe9e3048	-0.3089621
9	0xbe5aa730	-0.2135284
10	0xbe1271f7	-0.14301287
11	0x3ec18d17	0.37802956
12	0x3e728014	0.2368167
13	0x3e66ae3f	0.22527407
14	0xbf374839	-0.7159458
15	0x3e75605b	0.23962538
16	0xbe40f3dd	-0.18843026
17	0x3e8ad6bd	0.27116957
18	0xbcf13320	-0.029443324
19	0x3dd506ed	0.104017116
20	0xbd9f2d1d	-0.077722766
21	0x3db2c724	0.08729389
22	0xbe48b675	-0.19600852
23	0x3cfbce53	0.030738031
24	0xbf343c8a	-0.70404875
25	0xbe3ea7d6	-0.18618712
26	0xbd8bc524	-0.06824711
27	0x3d0a9037	0.03382894
28	0x3e203f79	0.15649213
29	0x3da0a822	0.07844569
30	0xbec93bab	-0.39303336
31	0x3da6aede	0.08138822
32	0xbe554c75	-0.20829947
33	0xbd92422b	-0.07141527
34	0x3da9f161	0.082979925
35	0x3e9224b9	0.28543642
36	0x3d848743	0.064711116
37	0x3cad9b22	0.021192137
38	0xbb36c052	-0.0027885628
39	0xbce7aa72	-0.028279517
40	0xbe220e73	-0.15825824
41	0x3dac0fb7	0.08401435
42	0xbc9ee3f9	-0.019395815
43	0x3e4d1823	0.20028739
44	0xbe2de7a7	-0.169829
45	0x3c713311	0.014721648
46	0xbcf93c62	-0.0304243
47	0xbdecde8a	-0.115658835
48	0xbed1ac44	-0.4095174
49	0xbe8cc6d1	-0.27495435
50	0xbf69fd0b	-0.9140174
51	0x3e24cdd9	0.1609415
52	0xbc456a61	-0.0120492885
53	0xbe91b5e7	-0.28459093
54	0xbeb5dc0a	-0.3551944
55	0x3dbeab74	0.09310046
56	0xbd67f4bb	-0.056629878
57	0xbe9f6d73	-0.3113819
58	0x3befa23c	0.007313041
59	0x3d68ada0	0.056806207
60	0xbeca9eb9	-0.3957422
61	0x3b451590	0.0030072667
62	0x3baf7676	0.005354698
63	0x3d97c10b	0.07409867
64	0xbe5e1489	-0.21687521
65	0xbea02895	-0.31280962
66	0xbed1ca62	-0.40974718
67	0x3dbbee53	0.09176316
68	0xbdfab356	-0.12241237
69	0xbf1adcd4	-0.60493207
70	0x3d3b5865	0.045738596
71	0xbd9f6e90	-0.0778476
72	0xbf329f35	-0.6977418
73	0xbdacbde7	-0.084346585
74	0xbe4503b1	-0.1923969
75	0xbe648728	-0.22317183
76	0x3e413876	0.18869194
77	0xbd8af9a9	-0.067859
78	0xbe8d1a35	-0.27559057
79	0x3e57e129	0.21081986
80	0xbe93c0f0	-0.28858137
81	0xbe99bad1	-0.30025342
82	0x3d5facd5	0.054608185
83	0x3dccbfd7	0.09997528
84	0x3cb08817	0.021549268
85	0xbe1bf974	-0.15231878
86	0xbd82f04b	-0.063934885
87	0x3d7a1371	0.061053697
88	0xbe4cad96	-0.19988093
89	0x3e1bd0cd	0.1521637
90	0x3d35607a	0.04428146
91	0x3d2f44b2	0.042790122
92	0x3dffc196	0.124880955
93	0x3db56b49	0.08858354
94	0xbf021e2c	-0.5082729
95	0xbcb4ecd3	-0.022085583
96	0xbee1478d	-0.439999
97	0x3e81953f	0.25309178
98	0x3c731b54	0.0148380585
99	0xbdec937a	-0.115515664
100	0xbf04b791	-0.518426
101	0x3e5ca17c	0.21545976
102	0x3ed8533b	0.42251
103	0x3e5df1b3	0.21674232
104	0x3e9e9024	0.30969346
105	0xbe04c58d	-0.12965985
106	0xbcd5ad2d	-0.026083553
107	0xbf6bbe35	-0.9208711
108	0xbec23ea7	-0.37938425
109	0x3e5c2cf1	0.21501519
110	0xbd5d7c04	-0.05407335
111	0xbf3e1ade	-0.74259746
112	0x3ea42bb4	0.32064593
113	0xbba78953	-0.005112806
114	0xbd745e6c	-0.05966036
115	0x3d6b4ef1	0.05744833
116	0xbf465226	-0.774691
117	0xbda0f071	-0.078583606
118	0x3cd2d605	0.025736818
119	0xbd30faf9	-0.043208096
120	0xbd78eb84	-0.06077148
121	0xbe4895ac	-0.19588345
122	0xbe8f4399	-0.2798126
123	0xbd196725	-0.037451882
124	0xbd817a96	-0.063222095
125	0x3d4bae64	0.04972686
126	0x3d35a521	0.044346932
127	0x3e25345d	0.16133256
128	0xbe8228cd	-0.25421754
129	0xbe5bbe4a	-0.21459308
130	0x3d1da6ab	0.038489025
131	0x3c245ab8	0.010031395
132	0xbd9bad2d	-0.0760139
133	0xbdc3a8e0	-0.09553695
134	0xbe13cafa	-0.14432898
135	0x3d34ecfd	0.044171322
136	0xbe2751dd	-0.16339822
137	0x3e1a12e8	0.15046275
138	0x3d2a7619	0.041616533
139	0xbe5f80e0	-0.21826506
140	0xbde835e1	-0.113384016
141	0xbb139c88	-0.002252372
142	0xbcd7312e	-0.026268568
143	0x3dd01c91	0.101616986
144	0xbdb7515b	-0.08951064
145	0xbd2bf5c7	-0.04198244
146	0xbd540656	-0.051763855
147	0xbdc28502	-0.094980255
148	0xbdcfaca2	-0.10140349
149	0xbe06e52d	-0.13173361
150	0x3c42df2a	0.011894027
151	0xbacbc793	-0.0015547149
152	0x3d088955	0.033334095
153	0xbdba273a	-0.09089513
154	0xbd9826b3	-0.07429256
155	0x3a83777a	0.0010030114
156	0xbd8e8526	-0.0695899
157	0x3c94d7e3	0.018169349
158	0xbe28a621	-0.16469623
159	0x3d12deeb	0.035857122
160	0xbc477c65	-0.012175654
161	0x3c797c98	0.015227459
162	0xbdcea68a	-0.100903586
163	0xbce1e2cc	-0.027573965
164	0x3b96c5ec	0.004601231
165	0xbdc2b2e2	-0.095067754
166	0xbd9035d9	-0.070415206
167	0xbe0e75ec	-0.13912171
168	0xbdf16e17	-0.11788576
169	0x3c8e2a1f	0.01735407
170	0x3d17b05b	0.03703342
171	0xbd0b5f96	-0.034026705
172	0xbe3ffa7f	-0.187479
173	0xbdef45cf	-0.11683237
174	0x3ae3a075	0.0017366546
175	0xbd346e3d	-0.044050444
176	0xbe0f2b84	-0.13981444
177	0x3d1ed220	0.03877461
178	0xbc94667f	-0.01811528
179	0xbe1a4621	-0.15065815
180	0xbdb5afaf	-0.088713996
181	0xbc79b262	-0.015240284
182	0xbe130411	-0.1435702
183	0xbdec0bff	-0.115257256
184	0xbdb7d2c0	-0.08975744
185	0xbd4c94d4	-0.04994662
186	0xbdaebbbf	-0.085319035
187	0xbcb2c632	-0.021823023
188	0x3d10ec0a	0.035381354
189	0x3db1bc35	0.08678476
190	0xbcaa3911	-0.020779165
191	0xbe0c7e3f	-0.13720034
192	0x3d8ce7ff	0.06880187
193	0x3cb37ebf	0.021911023
194	0x3d12c57b	0.035832863
195	0x3c54e784	0.012994651
196	0xbe27c1a4	-0.16382462
197	0xbde8f560	-0.113749266
198	0xbe254c9f	-0.1614251
199	0xbd46d41a	-0.04854212
200	0xbd37e236	-0.044893466
201	0xbe0a21a5	-0.13489397
202	0xbdc45a5e	-0.09587549
203	0x3cbcf539	0.02306615
204	0xbd8c4ba0	-0.06850362
205	0xbdf80866	-0.12110977
206	0x3dad5e55	0.08465258
207	0xbd1017f9	-0.035179112
208	0x3bebc847	0.007195506
209	0xbcfa419a	-0.03054886
210	0xbd07d37e	-0.03316068
211	0xbcdc42a9	-0.026887255
212	0xbc9c7dda	-0.01910298
213	0xbe081ad6	-0.13291487
214	0xbe0ed2cd	-0.13947602
215	0x3c115bf1	0.008872018
216	0xbde3ba1a	-0.111194804
217	0xbdb70172	-0.089358225
218	0xbd5a1bdc	-0.053249225
219	0x3d145169	0.03621045
220	0xbda23503	-0.079202674
221	0xbdc3f969	-0.095690556
222	0xbe14417e	-0.14478108
223	0xbe28b309	-0.16474546
224	0xbd596a67	-0.05307999
225	0xbd378e9e	-0.044813745
226	0xbd98c4d5	-0.07459418
227	0xbd2d0d87	-0.04224923
228	0xbddb9ed4	-0.107236534
229	0xbccf03a6	-0.025270294
230	0xbc9d7a53	-0.019223368
231	0xbd083721	-0.0332557
232	0xbd2f3719	-0.042777155
233	0xbd02fb4c	-0.031977937
234	0xbd2e5c3c	-0.04256843
235	0x3cd0238d	0.025407577
236	0x3c3ca8d7	0.011514864
237	0xbdae1b62	-0.085013166
238	0x3d91c5dc	0.07117817
239	0x3b40ef4c	0.0029439507
240	0xbda543de	-0.08069585
241	0xbe24b6fa	-0.16085425
242	0xbdd0a87a	-0.10188384
243	0xbd3a94cc	-0.04555206
244	0x3b7a40c8	0.0038185585
245	0xbcfa680e	-0.030567195
246	0xbdc1b8a5	-0.09459046
247	0xbcb2c0bd	-0.02182042
248	0xbdc0e2fc	-0.09418294
249	0x3d4c5067	0.049881365
250	0xbbc9b747	-0.0061558816
251	0xbdc3ced1	-0.095609315
252	0xbd9d1fbe	-0.0767207
253	0xbc84fa94	-0.016232766
254	0xbe187b68	-0.14890826
255	0xbd5272cb	-0.051379006

sequential/y_pred/BiasAdd/ReadVariableOp f4 [2]
0	0xbde8a5aa	-0.11359723
1	0x3de8a58a	0.11359699

sequential/y_pred/MatMul f4 [2, 2432]
0	0x3da43562	0.080179945
1	0xbcae67e8	-0.02128978
2	0xbda94a09	-0.08266074
3	0x3d87750f	0.06614124
4	0x3e2a914a	0.16656986
5	0x3dd6d321	0.104894884
6	0x3bfa4ec9	0.0076387865
7	0x3ccc1126	0.02491052
8	0x3d993fea	0.07482894
9	0x3e583783	0.21114926
10	0x3d683ee0	0.056700587
11	0x3e56330c	0.2091791
12	0x3e0a37e0	0.13497877
13	0x3dfd11be	0.123569
14	0x3ef76575	0.48319593
15	0x3dc12b79	0.0943212
16	0xbd009bbb	-0.031398516
17	0x3d96a878	0.073563516
18	0x3dc87686	0.097882316
19	0xbde92927	-0.11384802
20	0x3e8d165d	0.27556124
21	0xbda0cba8	-0.07851344
22	0x3dfd78c5	0.123765506
23	0xbe3e25fa	-0.18569174
24	0xbebab1c9	-0.36463764
25	0x3df4377f	0.119246475
26	0xbe4941ca	-0.19654003
27	0x3d7dda05	0.061975498
28	0xbe2c6bee	-0.16838047
29	0x3ec42b0d	0.38314095
30	0xbe5df1d7	-0.21674286
31	0x3e573112	0.21014813
32	0xbdcc8127	-0.09985571
33	0x3d0f5a95	0.034998495
34	0x3dffc0eb	0.12487968
35	0x3d824cd7	0.06362312
36	0xbc83eece	-0.016105082
37	0x3e998581	0.29984668
38	0xbe3e1847	-0.18563949
39	0x3ea6c476	0.32571763
40	0x3c28fc95	0.0103141265
41	0xbc9e41fa	-0.01931857
42	0xbdec0c49	-0.11525781
43	0x3d71b909	0.059014354
44	0xbe516bc8	-0.20451272
45	0x3d3ff866	0.04686775
46	0x3dcd17b7	0.10014289
47	0xbcd53eae	-0.026030865
48	0xbe65641f	-0.22401474
49	0x3dbe179c	0.09281847
50	0x3d77d020	0.060501218
51	0xbd8369a9	-0.064166375
52	0x3d8fd191	0.070223935
53	0x3e1a9fa1	0.15099956
54	0xbe4131dc	-0.18866676
55	0xbd85246b	-0.06501087
56	0x3d016c94	0.03159769
57	0x3dec4f39	0.11538548
58	0xbdce7faa	-0.10082944
59	0x3ce06f0b	0.0273967
60	0x3e5e7ae9	0.21726574
61	0xbeaa8305	-0.33303085
62	0xbd5dd4f4	-0.054158166
63	0x3e9db88a	0.30804855
64	0xbd4f164f	-0.050558385
65	0xbd1f2c6d	-0.038860727
66	0xbe15bef5	-0.14623626
67	0xbddd614b	-0.10809573
68	0xbdb3a6af	-0.08772027
69	0xbe90fa4a	-0.28315955
70	0xbe368c34	-0.17826921
71	0x3dc03e6b	0.09386905
72	0x3d105773	0.035239648
73	0x3e1d9fde	0.15393016
74	0xbe8186ec	-0.2529825
75	0xbda3b0b8	-0.07992691
76	0xbc50cbf1	-0.012743936
77	0x3bc0aaeb	0.00587975
78	0x3ca6122d	0.020272339
79	0xbb932b9d	-0.004491283
80	0x3c1abe5d	0.0094448
81	0x3d6fc751	0.058539692
82	0x3cad1465	0.021127889
83	0xbda3f4e7	-0.08005696
84	0x399767a4	0.00028878183
85	0xbe7b6c88	-0.2455312
86	0x3db33198	0.08749694
87	0xbd064965	-0.03278484
88	0xbe877847	-0.26458952
89	0xbe7c216f	-0.24622129
90	0x3d8e7ef0	0.06957805
91	0xbe247f85	-0.1606427
92	0xbe1ccff4	-0.15313703
93	0xbdc2ee0b	-0.09518059
94	0xbe0fc060	-0.14038229
95	0xbe7d521d	-0.24738355
96	0x3e9850ce	0.2974915
97	0x3d6bf8a2	0.05761016
98	0xbdf644a8	-0.12024814
99	0xbcd227a6	-0.025653671
100	0x3ebd0f96	0.36925954
101	0xbf21a346	-0.6313976
102	0x3ce7baff	0.028287409
103	0xbda6ec5a	-0.08150549
104	0x3d39b168	0.045335203
105	0x3e4c44f3	0.19948177
106	0x3e1158ba	0.14194003
107	0xbe705c7a	-0.23472777
108	0xbdba000b	-0.090820394
109	0xbd8f33d1	-0.06992305
110	0x3e0cfecc	0.13769072
111	0xbccb83ff	-0.024843214
112	0x3dddc5e3	0.108287595
113	0x3d3b5c35	0.045742232
114	0xbe446db9	-0.19182481
115	0xbca6c8ff	-0.020359514
116	0xbd87de2b	-0.06634172
117	0x3d08807f	0.03332567
118	0x3d334faf	0.043777164
119	0xbe2603ed	-0.16212435
120	0xbd863173	-0.065524004
121	0xbebdd990	-0.3708005
122	0x3e3ad803	0.18246464
123	0xbd6efb33	-0.05834503
124	0xbdcc910d	-0.09988604
125	0xbe7f6d7b	-0.24944107
126	0xbe2f6030	-0.17126536
127	0xbe5870a4	-0.21136719
128	0x3e00ad94	0.12566215
129	0x3ca79370	0.020456046
130	0xbe3ce799	-0.18447722
131	0xbdc429e3	-0.09578302
132	0x3e35777b	0.1772136
133	0x3e8a7f2d	0.27050152
134	0x3e11782a	0.14205995
135	0xbd9a377e	-0.075301155
136	0x3e29b77e	0.16573903
137	0x3dd2e358	0.10297269
138	0x3e25853d	0.16164108
139	0x3ea09f0a	0.31371337
140	0x3e8f582f	0.27996966
141	0x3dfc7058	0.12326115
142	0x3e9cfc79	0.3066137
143	0x3cde43ff	0.027132032
144	0xbe74a9bb	-0.23892872
145	0xbe14b789	-0.14523138
146	0x3e52b967	0.20578538
147	0xbe6166e8	-0.22011912
148	0x3e462340	0.19349384
149	0xbddc0407	-0.10742956
150	0xbe4c56be	-0.19954965
151	0xbe906cf9	-0.2820814
152	0xbbabfbb5	-0.0052485117
153	0xbddae987	-0.10689073
154	0xbe1103d8	-0.14161623
155	0x3b5f5f5d	0.003408394
156	0xbd828677	-0.063733034
157	0xbce7c3b7	-0.028291566
158	0xbe759da9	-0.23985924
159	0x3d4b5d46	0.0496495
160	0xbde249a7	-0.11049204
161	0x3c8281fc	0.015931122
162	0xbde34dc8	-0.1109882
163	0x3e132ddc	0.14372963
164	0xbe0a3f3c	-0.13500684
165	0x3e944474	0.28958476
166	0x3d9e448c	0.07727918
167	0x3e4b7055	0.1986707
168	0x3e910951	0.2832742
169	0x3d8b036f	0.06787764
170	0x3dd8f6f6	0.10593979
171	0x3deb1ef2	0.11480512
172	0x3efa786d	0.48920003
173	0x3cd85905	0.026409635
174	0x3e339d81	0.17540552
175	0xbcfeced5	-0.031104485
176	0xbe5c0658	-0.21486795
177	0x3da10e71	0.078640826
178	0xbea0f463	-0.31436452
179	0x3d2c5251	0.04207069
180	0x3ea6aad7	0.32552215
181	0x3d0963f8	0.033542603
182	0xbdf5ca11	-0.12001432
183	0xbe9a408a	-0.30127364
184	0x3ca7c340	0.020478845
185	0xbe6cb608	-0.23116314
186	0xbe827f5e	-0.25487798
187	0xbe2b1769	-0.16708149
188	0x3e0ccba0	0.13749552
189	0xbdd96bba	-0.1061625
190	0xbd03628a	-0.032076396
191	0x3e307e7e	0.17235753
192	0x3dc714aa	0.09720738
193	0xbbbeb4e5	-0.005819904
194	0xbdc87a93	-0.09789004
195	0x3d604b6f	0.05475944
196	0x3d9ad42c	0.0756
197	0xbec1c45b	-0.3784512
198	0x3d65b1ac	0.056077644
199	0x3e95db6e	0.29268974
200	0xbd34bee1	-0.04412735
201	0x3df31ed4	0.118711144
202	0xbda01a37	-0.078175
203	0xbde17d9d	-0.11010287
204	0xbe7d4b24	-0.24735695
205	0x3dbd9375	0.09256641
206	0x3d5424d1	0.051792923
207	0xbd4df4ba	-0.050282218
208	0xbd7f2561	-0.062291507
209	0xbdc1eee3	-0.09469392
210	0xbe25db74	-0.16196996
211	0x3d4e9db4	0.050443366
212	0x3e7ffc12	0.24998501
213	0xbe84ea73	-0.2596012
214	0xbdc54374	-0.09632006
215	0x3d98dd2a	0.07464059
216	0xbe4ac261	-0.19800712
217	0x3d97dd71	0.074152835
218	0xbdf670b5	-0.12033216
219	0xbe8fa7b0	-0.28057623
220	0x3da5a65e	0.08088373
221	0x3c2752f7	0.010212651
222	0xbe4009bc	-0.18753713
223	0xbcb79e5d	-0.02241438
224	0xbd0eba24	-0.034845486
225	0x3d21e43a	0.039524294
226	0x3d9eecf4	0.07760039
227	0xbe0bab99	-0.13639678
228	0x3ea01ce4	0.31272042
229	0xbe0dba9a	-0.13840714
230	0x3cfec1a4	0.031098194
231	0xbe9e035b	-0.30861935
232	0x3c5aa13e	0.013344107
233	0x3ded3fee	0.11584459
234	0x3d493587	0.049123313
235	0x3e17ed5a	0.14836636
236	0xbd11f3eb	-0.03563301
237	0xbd974a19	-0.0738718
238	0x3d8e869c	0.069592685
239	0x3d3d6b56	0.04624494
240	0xbf1f1daa	-0.6215464
241	0xbe17bbba	-0.14817706
242	0xbe04654c	-0.12929267
243	0xbddf59f6	-0.109058306
244	0x3b82052d	0.003967902
245	0xbe542f8e	-0.20721266
246	0x3d927a5c	0.071522444
247	0xbe311f20	-0.1729703
248	0xbdc60ddb	-0.096706115
249	0x3e50c6d8	0.20388353
250	0xbc032831	-0.008005188
251	0x3c286914	0.010278959
252	0xbdeb6744	-0.11494306
253	0xbe203687	-0.156458
254	0xbe61f92a	-0.22067705
255	0xbe099d82	-0.1343899
